PrintIntelligence.pth (torch, 637599 bytes, 4 tensors)

netLayers.0.weight f4 [200, 784]
0	0xbb8724bb	-0.0041242517
1	0x3d4e99e4	0.05043973
2	0x3d41e02d	0.04733293
3	0xbc716cb0	-0.014735386
4	0xbbb4595b	-0.005503816
5	0xba68e7e6	-0.0008884653
6	0x3c3d294d	0.011545491
7	0xbc7c99ca	-0.015417526
8	0x3cc95307	0.024575723
9	0x3ceb95a4	0.028757878
10	0xbb1fde4b	-0.0024393972
11	0xbc246f5f	-0.010036319
12	0xbbdc60c4	-0.0067254025
13	0xba71dd86	-0.000922643
14	0xbbd7de1b	-0.0065877563
15	0x3ccfaf83	0.025352245
16	0x3c032420	0.008004218
17	0xbbd269a3	-0.0064212843
18	0x3c9ea818	0.019367263
19	0x3cafbe7f	0.02145314
20	0x3d0eb2f5	0.034838635
21	0x3d278082	0.04089404
22	0x3d0958cf	0.03353196
23	0xbae7002d	-0.0017623954
24	0x3b07f42a	0.0020744898
25	0x3c0244ee	0.007951004
26	0xbb19c408	-0.002346279
27	0x3cb483fe	0.022035595
28	0x3c92b8f9	0.017910467
29	0x3d76d619	0.060262773
30	0x3d40660e	0.046972327
31	0x3cc9d22b	0.024636349
32	0x3d80e320	0.06293321
33	0x3b8b0fec	0.0042438414
34	0x3d52470a	0.05133728
35	0x3d2e5804	0.042564407
36	0x3d13948e	0.036030345
37	0xbc2bf449	-0.010495254
38	0x3cf7ca85	0.030247936
39	0x3a3a1259	0.0007098071
40	0x3ce8ede2	0.028433744
41	0x3c204289	0.009781488
42	0x3c1b7d0b	0.009490262
43	0x3a211cc8	0.00061459513
44	0x3ceceac8	0.028920546
45	0x3cd05374	0.025430419
46	0x3c283952	0.0102675725
47	0xbcc76f95	-0.024345199
48	0x3d0e357e	0.034718983
49	0x3b4ef0be	0.00315766
50	0x3c4fbaae	0.012678785
51	0x3cd4ff7d	0.026000733
52	0x3d081f78	0.033233136
53	0x3d49b050	0.04924041
54	0x3cc39dbb	0.023878923
55	0xbc26cad1	-0.010180191
56	0x3d1b1f29	0.037871514
57	0xb933d050	-0.00017148373
58	0x3bde12b7	0.0067771333
59	0xbc385431	-0.011250542
60	0x3d1b30de	0.0378884
61	0x3cf41bd0	0.029798418
62	0x3d81bf9f	0.06335377
63	0x3ca5acb2	0.02022395
64	0x3d0d7bbb	0.034541827
65	0x3d1e342a	0.038623966
66	0x3d801779	0.06254477
67	0x3c723cd5	0.014785011
68	0x3c8ddd7b	0.017317524
69	0x3c1b6018	0.00948336
70	0xbc5c63ac	-0.013451498
71	0xbc0cb37f	-0.008587717
72	0x3d50d130	0.050980747
73	0x3d7a6704	0.0611334
74	0x3d8834da	0.06650706
75	0x3cafc0a9	0.021454172
76	0x3c945b62	0.018109981
77	0x3d062ffd	0.03276061
78	0x3d69b5c3	0.057058107
79	0x3a507e83	0.0007953422
80	0xbc68e576	-0.014214864
81	0xbc85a34c	-0.016313218
82	0x3b04ecdc	0.002028278
83	0xbce57088	-0.02800776
84	0x3d0d8e44	0.034559503
85	0xbc55a2c4	-0.013039295
86	0x3d4ac8ff	0.04950809
87	0x3d49c16a	0.04925672
88	0x3c9f384c	0.019436024
89	0x3c487e72	0.012237178
90	0x3d852c1b	0.06502553
91	0x3d91099b	0.0708191
92	0x3d220293	0.039553236
93	0x3c202c24	0.009776149
94	0x3d217fe0	0.03942859
95	0xbbe99108	-0.007127885
96	0xbc868900	-0.016422749
97	0x3cfc79e1	0.030819835
98	0x3d5578be	0.0521171
99	0x3c1a577a	0.00942027
100	0x3c9f0d27	0.019415451
101	0x3d357295	0.044298727
102	0x3d001077	0.031265702
103	0x3d8efbba	0.06981607
104	0x3d233abd	0.03985094
105	0x3d247f47	0.040160444
106	0x3d38eccb	0.0451477
107	0xbbec3546	-0.007208499
108	0x3c5680d8	0.013092242
109	0x3c3b95a9	0.011449256
110	0xbd13e050	-0.036102593
111	0xbc250cde	-0.010073869
112	0x3d34bcd1	0.04412538
113	0x3ca23451	0.019800337
114	0x3c228aec	0.009920817
115	0x3cf75ca7	0.030195547
116	0x3d6e9607	0.058248546
117	0xbc40ef66	-0.011775827
118	0x3d952dcc	0.07284126
119	0x3c80d79b	0.015727809
120	0x3d6dce8e	0.058058314
121	0x3c948dc2	0.018134002
122	0xbc9c4c07	-0.019079221
123	0xbc6e66ca	-0.014550874
124	0x3cc7dd55	0.024397532
125	0xbab9cdec	-0.0014175749
126	0x3c55df81	0.013053776
127	0x3d481648	0.048849374
128	0x3c520c69	0.012820342
129	0x3d06f7ac	0.032951042
130	0x3d0d6db8	0.034528464
131	0x3d0efc72	0.03490872
132	0x3cd531cc	0.026024722
133	0x3c57e924	0.013178144
134	0x3cc038d7	0.023464603
135	0x3ce9bf10	0.028533489
136	0xbb397134	-0.0028296234
137	0xbd240124	-0.04004015
138	0x3c896db3	0.016775941
139	0x3d0650e0	0.032791972
140	0x3cbbe614	0.022936858
141	0x3bcedad8	0.0063127093
142	0xbc41f816	-0.011838933
143	0x3bd1c951	0.0064021726
144	0x3d045303	0.03230573
145	0x3d3ba981	0.04581595
146	0x3ae3f3a7	0.001739134
147	0x3d078d0d	0.0330935
148	0x3b9104a1	0.0044256006
149	0xbc3e96e3	-0.011632654
150	0xbc6d3caf	-0.0144798
151	0xbcd01b74	-0.025403716
152	0xbc4cae01	-0.012492658
153	0x3c9256bc	0.017863624
154	0x3c3d764b	0.011563848
155	0x3d519d6c	0.05117552
156	0xbca714aa	-0.020395596
157	0xba82b1aa	-0.0009971161
158	0xbbd6ce15	-0.0065553286
159	0x3c8aca46	0.016942155
160	0x3c965e64	0.018355556
161	0x3c9bcc6b	0.019018373
162	0x3ca67d93	0.02032355
163	0xbbbe68d5	-0.005810837
164	0xbc4490ef	-0.0119974455
165	0xbceec21a	-0.02914529
166	0xbcb50ba0	-0.02210027
167	0x3ca7de3c	0.020491712
168	0x3cf2bfee	0.029632535
169	0x3c3460b1	0.011009381
170	0xbb7ddd73	-0.003873673
171	0x3ba2d8be	0.0049696853
172	0xbc68ecfe	-0.01421666
173	0x3c2f860c	0.010713112
174	0xbb2418b9	-0.002503915
175	0x3d363e6b	0.04449312
176	0x3cbe96b1	0.023265215
177	0x3b86826e	0.004104904
178	0xbc973cc0	-0.018461585
179	0xbcdacf95	-0.026710311
180	0xbca89e13	-0.020583188
181	0xba68d619	-0.00088820007
182	0x3ca696f5	0.020335654
183	0x3d31fb99	0.043452833
184	0x3b116492	0.0022185189
185	0x3cb0387b	0.021511307
186	0x3b84c540	0.0040518343
187	0x3d3e756f	0.046498712
188	0x3ccd3646	0.025050294
189	0x3d5e67d8	0.054298252
190	0x3d7c5cb1	0.061611835
191	0x3d4caf51	0.049971882
192	0x3cd8653f	0.026415465
193	0x3ccacf96	0.024757188
194	0xbd00bbd5	-0.03142913
195	0x3d1a3e10	0.037656844
196	0xbb888c19	-0.0041670916
197	0x3d0b48ec	0.03400509
198	0xbb42f168	-0.002974594
199	0xbcb88ee2	-0.02252907
200	0x3c4221be	0.011848865
201	0x3b9edb0f	0.004847891
202	0xbc1d1240	-0.009586871
203	0x3cbeefaf	0.02330765
204	0xbc995377	-0.018716557
205	0xbb80cc88	-0.003930632
206	0xbd4a5422	-0.04939664
207	0xbcd36c65	-0.025808522
208	0xbc99d9bc	-0.018780582
209	0x3d151edb	0.03640638
210	0x3c2ec6d8	0.010667525
211	0x3d5a87f6	0.05335232
212	0x3d803ba4	0.062613755
213	0x3c950ee0	0.01819557
214	0x3d7c20cd	0.06155472
215	0x3d21bec5	0.039488573
216	0x3d3b837c	0.04577969
217	0xba1289be	-0.0005589983
218	0xbc60874d	-0.013704133
219	0xbb1e654c	-0.0024169264
220	0xbcdd5306	-0.027017128
221	0xbccdac92	-0.025106702
222	0x3b24074d	0.0025028766
223	0xbcaa86c5	-0.020816216
224	0x3ba84a9d	0.0051358477
225	0xbc8780ef	-0.016540973
226	0xbc596942	-0.013269724
227	0xbbe11404	-0.006868841
228	0x3c1bb327	0.0095031625
229	0x3d0b9bb3	0.034084033
230	0x3aa7e3b0	0.0012808945
231	0x3bc00a38	0.005860593
232	0xbd664609	-0.056219134
233	0xbd003d3f	-0.03130841
234	0xbd5fe414	-0.05466087
235	0xbc04b406	-0.008099562
236	0x3ca226f8	0.019793972
237	0x37dd24a0	2.6362308e-05
238	0x3d2f24d3	0.042759728
239	0x3d0dc6ad	0.0346133
240	0x3d2ebc38	0.04265997
241	0x3d7ba06c	0.061432287
242	0x3d7deeab	0.06199519
243	0x3d261238	0.04054472
244	0xbc55cd5a	-0.013049448
245	0xbce2a6bb	-0.027667394
246	0x3d1888fa	0.037240006
247	0xbd213f43	-0.03936697
248	0xbd040eed	-0.032240797
249	0x3c0adf52	0.008476095
250	0x3bcad157	0.006189506
251	0x3cb873b1	0.022516103
252	0x3bacb354	0.005270401
253	0x3c5721be	0.013130603
254	0xbcff15aa	-0.03113826
255	0xbc9752c0	-0.018472075

netLayers.0.bias f4 [200]
0	0x3cc9d381	0.024636986
1	0xbb51b0b9	-0.0031996204
2	0x3d09b676	0.033621274
3	0xbca3651a	-0.01994567
4	0xbc00e83a	-0.007867867
5	0x3d1726b4	0.036902145
6	0x3d226a92	0.039652415
7	0x3d0a3a9c	0.0337473
8	0x3bd49c84	0.0064883847
9	0xbb88ee20	-0.0041787773
10	0x3d271fdf	0.04080188
11	0xbb230e3b	-0.0024880308
12	0x3d097a59	0.033563945
13	0xbc323ed3	-0.010879236
14	0x3c28f423	0.010312113
15	0x3c25961e	0.0101065915
16	0x3cc14f68	0.023597434
17	0x3c1bb99d	0.009504703
18	0x3d41419e	0.047181718
19	0x3d0fa7e9	0.03507224
20	0x3d0d2109	0.034455333
21	0x3d56ee31	0.05247325
22	0x3d04ed03	0.032452594
23	0x3ca2675e	0.01982468
24	0xbbc0a8a6	-0.0058794795
25	0xbbd1b6cf	-0.0063999663
26	0x3d115e1a	0.035490133
27	0x3c92a7b0	0.017902225
28	0x3d535082	0.05159045
29	0x3d261de8	0.040555865
30	0x3d5ce859	0.05393252
31	0xbc0b9750	-0.008519962
32	0x3c6a39a0	0.014295965
33	0x3b6875cf	0.003547061
34	0xbd1938b1	-0.03740758
35	0xbd28724f	-0.04112464
36	0x3ce7bf70	0.028289527
37	0xbc513848	-0.012769766
38	0x3b286d18	0.002569979
39	0x3d01be69	0.03167573
40	0x3d30b715	0.04314335
41	0xbabdecf7	-0.0014490177
42	0x3ccd1647	0.025035037
43	0xbcd5f2bc	-0.026116721
44	0x3c0915de	0.00836703
45	0x3bd3b695	0.0064609745
46	0x3cee3bf3	0.02908132
47	0xbcb6e83e	-0.022327539
48	0x3c2b676e	0.010461671
49	0xbbf9d883	-0.007624687
50	0xbc9b9dde	-0.018996175
51	0x3c299e03	0.010352614
52	0x3a9272af	0.0011173094
53	0xbc3fbc35	-0.011702587
54	0x3b922d55	0.0044609704
55	0x3ac2c81e	0.0014860665
56	0xbab4ea63	-0.0013802763
57	0x3d78eb36	0.06077119
58	0xbcfbbe96	-0.030730527
59	0xbc7ae19e	-0.01531258
60	0xbc1e42f7	-0.00965952
61	0x3c777c18	0.01510527
62	0x3c1b0f35	0.009464075
63	0x3bc97852	0.0061483765
64	0xbc1d4818	-0.009599708
65	0x3d17101c	0.036880597
66	0x3b14e6ce	0.0022720578
67	0xbc62fcb7	-0.013854197
68	0xbbf287f6	-0.0074014617
69	0xbb7daa72	-0.003870633
70	0x3d32b211	0.04362685
71	0x3c5086bc	0.012727436
72	0x3cf8ba6c	0.03036233
73	0xbc5b6c27	-0.013392485
74	0x3d328a64	0.04358901
75	0xbc12d71c	-0.008962419
76	0x3c0ffa16	0.0087876525
77	0x3cb75d33	0.022383308
78	0x3cd37db4	0.025816776
79	0x3cdbd591	0.026835235
80	0x3c70e951	0.0147040645
81	0xbc8e6155	-0.017380396
82	0xbcf98978	-0.030461058
83	0x3d64db9c	0.0558735
84	0x3d2f864d	0.04285269
85	0x3cfa20c6	0.030533206
86	0x3c121f59	0.008918607
87	0x3d1481b3	0.036256503
88	0xbb24fc60	-0.0025174841
89	0x3c9a5b2b	0.0188423
90	0x3d103d6d	0.03521483
91	0x3b2b51f1	0.002614137
92	0x3c49326c	0.012280088
93	0x3cc5065a	0.02405088
94	0x3d58c8e1	0.052925948
95	0xbb102ac2	-0.0021998142
96	0x3d1f5083	0.03889514
97	0x3c46d7ce	0.012136413
98	0xba6a318e	-0.0008933776
99	0x3ca7441b	0.020418217
100	0xbacb40bc	-0.0015506963
101	0x3d0af008	0.033920318
102	0x3cd54b1e	0.026036795
103	0x3d0e9e57	0.034818973
104	0x3c954bd1	0.018224629
105	0x3d56251e	0.05228149
106	0x3d0c90ea	0.03431789
107	0x3c01d20f	0.007923617
108	0x3d167256	0.036730133
109	0x3ca12b47	0.019673957
110	0x3d3b95a2	0.045796998
111	0x3c3390a7	0.010959781
112	0xbc6f28f1	-0.014597164
113	0xbc8fbc8f	-0.017545966
114	0x3d4d05fa	0.050054528
115	0xbbb4931c	-0.005510701
116	0x3c2be19a	0.010490799
117	0x3a7aaac5	0.000956219
118	0x3d0fa1f5	0.035066564
119	0x3975e3e8	0.00023449922
120	0x3d31bef4	0.043394998
121	0x3d3eb30f	0.046557482
122	0x3cec6f16	0.028861564
123	0xbc612680	-0.013742089
124	0xbbd63b2a	-0.0065378146
125	0xbb978e9e	-0.0046251556
126	0x3ce51f0e	0.02796891
127	0x3cad3fbc	0.021148555
128	0x3d2ee71b	0.042700868
129	0x3ccd206f	0.02503988
130	0x3d06cd0f	0.032910403
131	0x3cc2445f	0.023714243
132	0xba4b9d68	-0.0007767291
133	0xbbb45ca7	-0.005504209
134	0xbc181c41	-0.00928408
135	0x3cc452ac	0.023965202
136	0xbc8be623	-0.017077511
137	0x3d21115b	0.039323192
138	0x3d0d01d7	0.034425583
139	0x3d48a59f	0.048986074
140	0xbc035cc9	-0.008017727
141	0x3bc5d7ef	0.006037704
142	0xbbcc69a4	-0.0062381793
143	0xbc71ec44	-0.014765803
144	0xbca40b6b	-0.020024976
145	0xbbf52414	-0.0074811075
146	0x3d3a8b89	0.045543227
147	0xb9a4d2d4	-0.00031437597
148	0xbc995017	-0.018714948
149	0xbc87061d	-0.016482407
150	0xbaa8cab7	-0.0012877797
151	0x3bb1e2e6	0.0054286597
152	0xbca72744	-0.020404465
153	0xb8c1b10a	-9.235933e-05
154	0x3cbf14e8	0.023325399
155	0x3c9a4d24	0.018835612
156	0xbc2a90b5	-0.010410477
157	0xbca104f4	-0.019655682
158	0xbbe34d46	-0.006936702
159	0x3d695e99	0.05697498
160	0x3d066ef2	0.03282065
161	0xbca922f0	-0.020646542
162	0x3b2faab8	0.0026804637
163	0x3d1a0c4b	0.03760938
164	0x3c128dcb	0.008944939
165	0xbbfdccae	-0.007745347
166	0x3c9bf880	0.019039392
167	0xbc934a7f	-0.017979858
168	0x3d465940	0.04842496
169	0x3d5124a7	0.051060345
170	0x3ce40db0	0.027838558
171	0xbc4cd634	-0.012502242
172	0x3d1f7a75	0.038935144
173	0x3d1f49a3	0.038888585
174	0x3d53995b	0.051659923
175	0x3c65b70d	0.0140206935
176	0x3cf219b6	0.029553276
177	0x3c9c2303	0.019059664
178	0xbcfa4822	-0.030551974
179	0x3d635fd1	0.0555113
180	0xbc6505ea	-0.013978461
181	0xbc5bc697	-0.013414047
182	0x3c8ef37a	0.017450083
183	0x3ce923cb	0.02845945
184	0x3d16d1b1	0.03682107
185	0x3d1875d1	0.037221733
186	0x3cf3e1b7	0.029770715
187	0xbb059d5b	-0.002038798
188	0x3d15517e	0.03645467
189	0x3d739660	0.05946958
190	0xbb078d57	-0.002068361
191	0x3cd53961	0.026028337
192	0x3bb87fdc	0.0056304764
193	0x3cd0ac9f	0.025472937
194	0xbc529a30	-0.012854144
195	0x3bd0aad9	0.006368023
196	0xbc268c83	-0.010165337
197	0x3c78fb69	0.01519666
198	0x3cfdd275	0.030984143
199	0xbaab64ba	-0.0013076284

netLayers.2.weight f4 [10, 200]
0	0xbdb0d38a	-0.08634098
1	0x3d532559	0.05154929
2	0xbda06667	-0.07832032
3	0xbd43adc6	-0.047773145
4	0x3da6489a	0.081193164
5	0xbd8a8a5b	-0.067646705
6	0xbd577ec2	-0.05261112
7	0xbcaac556	-0.02084605
8	0x3d718b09	0.058970485
9	0xbb2f6586	-0.0026763394
10	0xbdc2cb7d	-0.095114686
11	0xbd8ccac8	-0.06874615
12	0xbd77bb7e	-0.06048154
13	0xbcb7b365	-0.02242441
14	0xbd8ff749	-0.07029588
15	0xbda073bb	-0.07834574
16	0x3c8d5e86	0.017256986
17	0x3d271561	0.040791873
18	0xbdc74e66	-0.0973175
19	0x3cd3861b	0.025820782
20	0x3d84558f	0.064616315
21	0x3d940d2d	0.072290756
22	0x3d5efb42	0.054438837
23	0xbd4e9b0d	-0.050440837
24	0xbd72fba3	-0.05932201
25	0x3d68b948	0.056817323
26	0xbc3b10bd	-0.011417565
27	0x3d8dae55	0.06918017
28	0xbdd1abcd	-0.102378465
29	0x3da07f5c	0.07836792
30	0x3d08d7f8	0.03340909
31	0x3dd15dae	0.10222946
32	0x3da3bcaa	0.07994969
33	0xbbfc45ab	-0.0076987348
34	0x3c210a9f	0.009829192
35	0x3b8e38c2	0.004340262
36	0x3d06a595	0.032872755
37	0x3d95001c	0.072754115
38	0xbcc5b798	-0.024135396
39	0xbd3db922	-0.046319135
40	0xbd810c7c	-0.06301209
41	0x3cb79d6d	0.022413934
42	0xbdc8e538	-0.09809345
43	0xbc962fa9	-0.018333273
44	0xbd705a77	-0.058680024
45	0xbd6a3bd6	-0.05718597
46	0xbd5e27dc	-0.05423723
47	0xbd58cddb	-0.052930694
48	0xbd715aeb	-0.058924597
49	0x3d23a85c	0.039955482
50	0x3d1cf052	0.038315125
51	0xbd744fe5	-0.059646506
52	0x3cb8faa6	0.022580456
53	0xbd98dcb9	-0.074639745
54	0x3c4018c6	0.011724656
55	0xbc37be9a	-0.011214877
56	0xbd601840	-0.054710627
57	0xbc8b05cc	-0.016970538
58	0x3d4bc116	0.049744688
59	0x3d673090	0.056442797
60	0xbca0726f	-0.019585816
61	0xbdf4abe8	-0.11946851
62	0xbdabec13	-0.08394637
63	0x3d80ddfd	0.06292341
64	0x3d94b17c	0.07260415
65	0xbd0964b8	-0.03354332
66	0xbd1accb6	-0.037792884
67	0xbcfb8be4	-0.030706353
68	0x3dd0ac06	0.10189061
69	0xbd6dcbf3	-0.05805583
70	0xbdb445b1	-0.08802355
71	0x3d3a7a63	0.045526873
72	0x3d6ebe17	0.058286753
73	0xbd8de9b5	-0.06929342
74	0xb94ef353	-0.00019736336
75	0xbdd0e084	-0.10199073
76	0xbd862cd4	-0.06551519
77	0xbdb76fb8	-0.089568555
78	0x3dd5ee6d	0.10445867
79	0x3cdbd81a	0.026836444
80	0xbddbe224	-0.10736492
81	0x3948f024	0.00019162946
82	0xbc966df2	-0.018362973
83	0xbdbfd3f2	-0.09366597
84	0x3d47ed43	0.048810255
85	0xbd742d87	-0.05961373
86	0xbdaa9867	-0.0832985
87	0xbd5a0af0	-0.053233087
88	0x3c125128	0.008930482
89	0x3d9487c4	0.07252458
90	0x3db61532	0.088907614
91	0x3c077eef	0.008270009
92	0x3c7b46c6	0.015336698
93	0x3d598960	0.053109527
94	0x3d3a403d	0.04547142
95	0xbd7c1293	-0.06154115
96	0x3db7de76	0.08977978
97	0x3d96f779	0.073714204
98	0x3da8e0a0	0.08245969
99	0xbd2034f9	-0.03911302
100	0xbd252a39	-0.04032347
101	0x3d8c4b2b	0.06850275
102	0xbc5d97c6	-0.013524955
103	0x3d84e1bb	0.06488367
104	0x3db24411	0.08704389
105	0xbdbef3c9	-0.09323842
106	0x3d733189	0.059373412
107	0x3d8b10b3	0.067902945
108	0x3d2e571c	0.042563543
109	0x3d955449	0.07291467
110	0x3bdac61b	0.006676448
111	0xbd4dfeef	-0.05029195
112	0xbd92e986	-0.07173447
113	0x3c2bc920	0.010484964
114	0x3d6a3cbe	0.057186835
115	0xbddae48a	-0.106881216
116	0x3cfcf488	0.03087832
117	0xbdd90980	-0.10597515
118	0xbd0d5e29	-0.034513626
119	0x3c67bedd	0.014144626
120	0xbdafcad5	-0.08583609
121	0x3d11e77c	0.03562115
122	0xbdde15ad	-0.10843978
123	0xbd4998c3	-0.04921795
124	0x3d72ba18	0.059259504
125	0x3b1b5aec	0.0023705317
126	0xbd33a3d0	-0.043857396
127	0x3c57e037	0.013176016
128	0xbd351f91	-0.044219557
129	0xbd598399	-0.053104017
130	0x3c50ecc5	0.012751763
131	0xbda05e1f	-0.07830452
132	0xbdd47b2b	-0.10375055
133	0xbd9df808	-0.07713324
134	0xbbaf7494	-0.0053544734
135	0xbc86f3bc	-0.016473643
136	0xbd865d99	-0.06560821
137	0x3d2c642d	0.042087723
138	0xbcd1a785	-0.025592575
139	0x3c52ea98	0.012873314
140	0x3d3b292b	0.045693558
141	0xbce4f692	-0.027949605
142	0xbd63cd0b	-0.055615466
143	0xbb84639f	-0.004040196
144	0xbd838b67	-0.06423073
145	0x3d51a8c8	0.051186353
146	0x3d4f2367	0.05057087
147	0x3d86d4e5	0.06583575
148	0x3d3176d0	0.0433262
149	0xbcee31aa	-0.029076416
150	0x3d8775e9	0.066142865
151	0x3de12a1a	0.10994358
152	0x3d9e0cf7	0.077173166
153	0xbcae87ec	-0.021305047
154	0xbd35ee0e	-0.04441648
155	0xbc05904d	-0.00815208
156	0xbd88ecad	-0.06685767
157	0xbc77fd82	-0.015136125
158	0xbd9e96da	-0.077436164
159	0xbdd50550	-0.10401404
160	0xbc94f552	-0.018183384
161	0xbadff513	-0.0017086588
162	0x3d955f54	0.07293573
163	0xbb4d19e2	-0.0031295945
164	0xbb26c2a0	-0.0025445595
165	0xbdbdc9fb	-0.0926704
166	0x3d65d976	0.05611559
167	0x3d484d46	0.04890182
168	0xbd445f3d	-0.04794239
169	0x3cd7eca2	0.026357953
170	0x3d9ea1fc	0.0774574
171	0xbcbc2c93	-0.022970473
172	0x3ca25672	0.019816611
173	0x3dccd325	0.1000121
174	0xbd9ff6c4	-0.07810739
175	0x3d58b387	0.052905586
176	0x3ceddb5c	0.029035263
177	0xbda56c45	-0.080772914
178	0xbda49044	-0.08035329
179	0xbba7f22f	-0.005125306
180	0x3d5dc663	0.054144274
181	0x3d5d014b	0.05395631
182	0x3be6684b	0.0070314757
183	0x3d854926	0.065080926
184	0xbd128668	-0.03577271
185	0x3ad8c34a	0.0016537693
186	0xbda0a6f0	-0.07844341
187	0xbda57eb3	-0.080808066
188	0x3da436c5	0.08018259
189	0xbda7db92	-0.081961766
190	0x3daa715c	0.08322403
191	0x3d30e097	0.043182936
192	0xbca3c4c6	-0.01999129
193	0x3d1f075f	0.03882539
194	0xbd9aad6b	-0.07552608
195	0xbd9b58ce	-0.075852975
196	0xbd8e1b8c	-0.06938848
197	0x3cafa515	0.021441022
198	0x3d43762b	0.047720116
199	0x3c3b7c1e	0.011443166
200	0x3d119abd	0.03554796
201	0x3d2b405e	0.041809432
202	0x3d7df589	0.06200174
203	0xbdba95d9	-0.091106124
204	0x3d7371cd	0.0594347
205	0x3d2a90a1	0.041641835
206	0x3da8e1ed	0.08246217
207	0xbdc77989	-0.09739978
208	0xbc130608	-0.008973606
209	0xbd12a53c	-0.03580211
210	0xbd948451	-0.072518
211	0x3d58560f	0.052816447
212	0x3dd0a9ad	0.10188613
213	0xbdcb0935	-0.099138655
214	0xbdc0b8ac	-0.09410223
215	0xbb9ef7d8	-0.0048513226
216	0xbd645bda	-0.05575166
217	0xbced31e8	-0.028954461
218	0x3da59090	0.08084214
219	0x3db0a75f	0.086256735
220	0x3c755c54	0.014975626
221	0xbdd738cf	-0.10508882
222	0xbd7eaa14	-0.062173918
223	0x3d540602	0.051763542
224	0x3cc515f8	0.024058327
225	0xbd179865	-0.03701057
226	0x3d0be51f	0.034154054
227	0xbda3a364	-0.07990149
228	0x3d4e6061	0.050384883
229	0xbd4078c6	-0.04699018
230	0x3b88b83c	0.004172353
231	0xbdc8b160	-0.097994566
232	0x3d9183c3	0.0710521
233	0xbd92b895	-0.071641125
234	0x3c8ff0bc	0.017570846
235	0x3d5301a1	0.051515225
236	0x3da05132	0.07827987
237	0xbdcf641c	-0.10126516
238	0xbd5636ab	-0.05229823
239	0xbd140dea	-0.036146082
240	0x3d821cd3	0.06353154
241	0x3d32df01	0.043669704
242	0x3c3db476	0.01157867
243	0xbda2609a	-0.079285815
244	0x3dd1ba91	0.10240663
245	0x3d6bab5f	0.05753648
246	0x3d182867	0.037147906
247	0xbddc1b0a	-0.10747345
248	0x39bd880f	0.0003615026
249	0x3d5092c8	0.05092123
250	0xbd497d1e	-0.049191587
251	0x3d299fa5	0.041412015
252	0x3d8fb0b8	0.07016128
253	0xbd1229ec	-0.03568451
254	0x3d192768	0.037391096
255	0xbd8b3c05	-0.06798557

netLayers.2.bias f4 [10]
0	0x3d80dc15	0.06291977
1	0x3c142d40	0.009043992
2	0x3c614f56	0.013751825
3	0x3ce19e2e	0.027541246
4	0xbd931a17	-0.071827106
5	0xbc7d54aa	-0.01546208
6	0x3d223cc3	0.03960873
7	0x3d6e1267	0.05812302
8	0x3cfa3da6	0.030546974
9	0x3c1a14d1	0.009404377
