Intelligence/PrintIntelligence.pth (torch, 319647 bytes, 4 tensors)

netLayers.0.weight f4 [100, 784]
00000000: 8145 3bbd 04ef 2ebd 9bf9 aabc 0f6d dabc
00000010: 2bb2 6bbc f977 82bd 89e5 7bbd ad66 7b3b
00000020: 29f0 a93d 2c2f 9cbc 5ffc 973d 4c68 903d
00000030: 0278 1d3b c17e b73d a9d0 ae3d b92c 7e3d
00000040: 8ef7 a63d daf4 493c de1c 5d3d 412d 1b3d
00000050: 5a22 803d 3b2d ae3c 3d15 993d 4b21 a63d
00000060: a33f 003c d008 97bd 2891 a4bd 97ab 12bd
00000070: f972 76bc b5b3 18bc 4015 82bd 8bab b2bd
00000080: a24f 6abc 3fe3 2bbd 7d36 b8bc e164 d73c
00000090: a5f5 8d3d 5103 dc3c f7b1 4f3d d1cf 473d
000000a0: 6f5d af3d ac6d a03d 3a75 053c 8718 163d
000000b0: a2fd a3bc c33a 583d b844 8c3d 6bac c93c
000000c0: 3af3 2e3d 3055 bc3d 1cb7 923d 7d84 1e3d
000000d0: 1614 3bbd 1b60 d6bc d80b 383d a96b 2dbc
000000e0: 24c7 c4bc 0ebb 92bc 3f99 113c 7433 ebbb
000000f0: 1715 fbbb aefc b73c 624f 87bd 06ef c3bc
00000100: fca8 55bd e968 7ebd 81e4 bcbc 334a 113a
00000110: 16c6 113d eca3 d43d 610a ca3d 092e 043d
00000120: a975 803d 43ae aa3d 13c4 b33c 66c5 3f3d
00000130: e24d 953d 10c3 bf3d c834 8a3c 8d3b 3dbc
00000140: 1122 35bc 5faf 97bd cf6c 02bd e4ad 6b3d
00000150: 7523 0f3c 529d 163c 650f e0bb 7090 a83a
00000160: 8198 eebc cd86 adbb 51b0 f4bc 6072 b1bd
00000170: 29a9 88bd 8ffc 45bd 9016 29bd 81c6 9e3b
00000180: 0bb7 b53b f0f8 cd3b 010c c73c 665d 33bb
00000190: e59a 9f3d d41c 9f3d 0e46 ad3d 4fe8 d83c
000001a0: f6d9 573d dec4 873d 365c 5d3d cc49 9f3c
000001b0: 1bbb 353d 9523 163d 8f7e 2ebd 6ee2 4f3b
000001c0: 5318 823b 1c49 36bd 9975 cabc a01c cb3c
000001d0: 4429 f1bc c01d 8ebd a89f c4bd 7a14 e9bc
000001e0: 444a 6abd 9e59 2ebc f86e ef3b e48d afbc
000001f0: 3b8d 603c 62b2 f03c 0d9d adbc b484 93bc
00000200: 3e38 27bc 1e3f 27bc 566f bc3b 98f5 023d
00000210: 473d 4dbc bfdf 08bd 5d9c 22bd 7076 353d
00000220: fde1 82bb 978c 58bd 0e90 033d e749 803d
00000230: 9eaa 32bd 3792 303d 2334 eebc 0414 f1bc
00000240: a386 acbd 18af b6bd cbc4 95bc 3467 06bd
00000250: 7af0 5bbd c063 3ebc a239 eabc 4cda 10bd
00000260: 97fd 55bc ffbe 2d3b a835 bcbc 7037 4bbc
00000270: 7eeb 37bb 6680 10bd 8ec3 dd3c 6a5c 053d
00000280: c49e cdbc 7fa0 20bd b3f6 7cbd 31f9 b7bd
00000290: ebd2 61bd 5afe a0bc d825 953c a7ae 76bd
000002a0: dbcf 4cbb 9c90 01bd efa5 90bd 50a6 a9bc
000002b0: 6788 dfbd 2c7d bcbd b14a 5c3b fcba 9bba
000002c0: 45db 07bd 414b 99bc 9562 2e3c b6c8 50bc
000002d0: 8220 083d f843 b2ba 925a ae3c 6b05 83bc
000002e0: 73fd 73bc 643d be3a 4534 ec3a 92e7 6e3c
000002f0: 2346 dbbc ba7d 353b a0af d1bd 593e 85bd
00000300: 1410 b4bc 5ca7 c0bc c78c c3bc 3af5 fb3c
00000310: 9b3a 433c bc28 52bd 9da2 aabc 9d4d a1bc
00000320: f67b 55bd a9a8 5bbd 4b37 5cbc 1f9d 8bbc
00000330: 0f87 13bd 4989 c63c 78d0 ccbc 27be 0ebc
00000340: 8a61 3a3c 9880 603d 9d69 c43c cdca e2bc
00000350: 44c5 49bc 3427 f3bc 3415 f2bc 926a d2bc
00000360: a1f5 afbc 8054 9bbb 696c 06bd 2be7 5fbd
00000370: b982 b5bc 6779 81bc 751e 29bd e3e2 c43c
00000380: 3bc5 18bd e54c 603d 92da 393d 9070 a0bc
00000390: 4288 80bb 00da c1bb 88b1 0dbb a3d5 e33c
000003a0: f699 22bd d159 bc3b 3b7e 093d 0628 ad3d
000003b0: a627 853d 0ab6 183d 1902 de3c 3ce5 4bbc
000003c0: a2bc 32bd 781a 31bd 8bdf 40bd e8db 44bd
000003d0: 4338 d8bc 8ea0 62bd 5c14 c6bc d58a 89bc
000003e0: 1177 40bd 4870 3fbd 48b3 04bd 8549 4b3d
000003f0: 9eea 1c3d f1d2 903d 505e cf3c 23bd 813c
-0.04572058 -0.04270841 -0.020870974 -0.026663331 -0.01438574 -0.06370539 -0.0614982 0.003836076
0.0829776 -0.019065462 0.07421183 0.07051143 0.002402783 0.08959723 0.085358925 0.06205437
0.08152686 0.012326444 0.053982608 0.037884954 0.06256552 0.021261802 0.07474754 0.08111819
0.007827672 -0.07374728 -0.08035499 -0.035808172 -0.01504206 -0.009320189 -0.06351709 -0.087241255
-0.0143012125 -0.041964766 -0.02248692 0.02629322 0.069316186 0.02685705 0.05070683 0.048782174
0.08562743 0.07833418 0.008145625 0.036644485 -0.020018402 0.052790415 0.068490446 0.024618348
0.042712428 0.09195936 0.071638316 0.03870057 -0.045673452 -0.026168874 0.04493317 -0.01058475
-0.024020739 -0.01791146 0.008886634 -0.0071777645 -0.007662426 0.022459354 -0.06606938 -0.023917686
-0.05216311 -0.06211177 -0.023058178 0.00055423676 0.0355893 0.10382828 0.09865261 0.032270465
0.06272442 0.08334019 0.021944081 0.046819113 0.072902456 0.09363377 0.016870871 -0.011549843
-0.011055485 -0.07406496 -0.03184205 0.057538882 0.008736481 0.0091927815 -0.0068377727 0.0012860429
-0.029125454 -0.0052956105 -0.02986923 -0.086643934 -0.0667289 -0.04833656 -0.041281283 0.004845441
0.005545502 0.006285779 0.024297716 -0.0027368902 0.07793216 0.077691704 0.084606275 0.02647796
0.052698098 0.06629346 0.054043017 0.019444369 0.04436789 0.036655027 -0.042601164 0.0031720656
0.003970185 -0.044503316 -0.024714278 0.024793923 -0.029438622 -0.06939268 -0.096007645 -0.028452147
-0.05719973 -0.010641484 0.0073069297 -0.021429963 0.013705547 0.029381935 -0.021193052 -0.018007614
-0.01020628 -0.010207919 0.005750577 0.031972498 -0.012526817 -0.033416506 -0.0396999 0.044302404
-0.003994225 -0.052868452 0.032119803 0.06264096 -0.043619744 0.04310819 -0.029077595 -0.02942849
-0.084241174 -0.08920115 -0.018282315 -0.032813266 -0.053696133 -0.011620462 -0.028591935 -0.035364434
-0.013060949 0.0026511548 -0.022974804 -0.012403354 -0.0028063948 -0.0352787 0.027070787 0.032558836
-0.02510012 -0.03921556 -0.06175871 -0.08983076 -0.055132788 -0.019652534 0.018206522 -0.060225155
-0.0031251821 -0.03163205 -0.07062899 -0.020709187 -0.109146886 -0.09203562 0.0033613855 -0.0011881287
-0.033168096 -0.018712642 0.010643621 -0.012743166 0.033234127 -0.0013600579 0.021283422 -0.015993794
-0.01489197 0.0014514145 0.0018020949 0.014581578 -0.026766842 0.0027693347 -0.10238576 -0.065060325
-0.021980323 -0.023517303 -0.023870839 0.030756582 0.011915828 -0.05130838 -0.020829493 -0.01969033
-0.05212017 -0.053627644 -0.013440917 -0.017042695 -0.036017474 0.024235385 -0.02500175 -0.008712328
0.011375794 0.054810137 0.023976142 -0.027684594 -0.012315098 -0.02968178 -0.029551126 -0.025685582
-0.02147943 -0.004740298 -0.03281823 -0.05466382 -0.02215706 -0.01580496 -0.04128881 0.02403397
-0.03729747 0.054760832 0.04537446 -0.019584924 -0.003922493 -0.00591588 -0.002162071 0.02781183
-0.03969761 0.0057480116 0.03356765 0.084548995 0.06501703 0.03728298 0.02710061 -0.01244479
-0.043636926 -0.043238133 -0.047088187 -0.04806128 -0.026394015 -0.055328898 -0.02417963 -0.016789833
-0.04698855 -0.04673794 -0.03239754 0.04963066 0.038309686 0.07071484 0.025313526 0.015837258

netLayers.0.bias f4 [100]
00000000: 82ad de3d fe2f 02bd 8115 893c c6b7 9d3b
00000010: 7e6b 173d 9c82 983c 543f 363d 6271 e93c
00000020: 82df 8b3c e6ec b53c 033c 463d beed 6c3d
00000030: 680e fcba 36bf 39bd dd8a ea3c 9447 33bd
00000040: 20f7 823c 3b5f a1bc 6e82 e2bc 2c0c 1c3d
00000050: 7eca f7bb c5e1 d43c e3aa 0e3d ccb0 a5bc
00000060: 90f3 a638 18d1 1c3b 7cab c53b adbd 7f3d
00000070: 8a56 8fbc 61d0 963d 83c2 df3c 64c9 b1bc
00000080: 40b9 cfbc 30ac b03a 6890 f03c d7f7 263d
00000090: 95c7 303d e69a 583d a540 5abc ab0c 4a3d
000000a0: b688 cebc d4e6 af3c faa9 da3b 23c5 853c
000000b0: 533c dbbc f83a 0cbc db67 dd3c 385c d33c
000000c0: 80b8 af3a 22ca 483d f3f4 433d 24be 943c
000000d0: 1dac a13b 4762 a93c 72ce b83c 0ac4 cdbc
000000e0: db31 ba3c cf85 ea3b 1539 94bc 6d35 5f3d
000000f0: 2b7b 563c 7542 4a3d 68a3 b93d 872e 2abd
00000100: 1466 3cbd 488d 093d 1944 7b3d c55e d83c
00000110: b8db 263d ef2e 693d 6212 2e3d e2a2 733d
00000120: 4a87 e93c ac89 9c3c ec03 a63c f83d e33d
00000130: b3d9 9e3d 6329 f3bb 8795 1fbd ff20 8cbc
00000140: b7a4 443d b00a 8cbc 4514 cebc 1794 003d
00000150: 59bc 853c c142 a1bb 5b79 25bd 0822 5a3c
00000160: 4e06 f3ba 7db1 e83d bbcd 663d 9f39 2a3a
00000170: 7e58 d93a 2de7 4f3d 7bad 77bb bcd7 853c
00000180: c58f c2bb e044 dabc 9de6 2bbc d0bb fa3b
0.10872938 -0.03178405 0.016733887 0.0048131673 0.036967747 0.018616967 0.04449399 0.028496448
0.01707435 0.022207689 0.048397075 0.057843916 -0.0019230368 -0.04534837 0.028630668 -0.043769434
0.015986979 -0.01969873 -0.027650084 0.038097546 -0.0075619807 0.025986562 0.03483094 -0.020225905
7.960864e-05 0.002392834 0.0060324054 0.06243675 -0.01749732 0.07363964 0.02731443 -0.021702476
-0.025356889 0.001347905 0.029365733 0.040763702 0.043159086 0.052882098 -0.0133210765 0.049328487
-0.025211673 0.021472372 0.006673095 0.016329354 -0.026762163 -0.008558981 0.027027061 0.02580081
0.0013406426 0.049020894 0.047841024 0.018157072 0.0049338476 0.020676745 0.022559378 -0.025117893
0.022728851 0.0071570645 -0.018093625 0.05449431 0.013090889 0.049379785 0.090643704 -0.04154828
-0.045995787 0.033582002 0.06134424 0.026412377 0.040736884 0.056929525 0.042498 0.05948151
0.028506894 0.019108616 0.020265542 0.11095804 0.077563666 -0.007420705 -0.03896096 -0.017105578
0.048008647 -0.01709494 -0.02515615 0.03139123 0.016325163 -0.0049212878 -0.040398937 0.013313778
-0.0018541308 0.11361978 0.056348544 0.00064935716 0.0016582159 0.050757576 -0.0037792611 0.016338222
-0.005937549 -0.02664417 -0.010491994 0.0076517835

netLayers.2.weight f4 [10, 100]
00000000: 530b c63d 81ad 41bc 053f 9c3c cb74 97bd
00000010: 3cc5 c83d d88f 793d 3c79 17bd 475b 3bbe
00000020: 8ef7 6c3d 1ada 063d a862 bcbd 7b3c bc3d
00000030: 880d f5bd 63fe 16be 23a9 173c 9d15 003d
00000040: d772 883d 27b7 853d 8c25 113d 8f83 5bbc
00000050: b582 bb3d 79b5 f4bd 4dc7 aa3d 16db 91bd
00000060: 8bf3 de3b e3c7 953c bc4b 08be c915 82bd
00000070: 2487 bbbd 8b92 493d 2ae2 f53c ec1d 2fbe
00000080: 0525 6e3d 071e 06be e02d 8f3d ed72 e2bd
00000090: e101 9dbd ca35 9c3d 6640 1abd a572 b8bd
000000a0: 16e5 2cbd eec5 97bd 7efe e8bd 351f dbbd
000000b0: dd18 09be 82f0 c83c 809b 213c 5601 a4bd
000000c0: 461e 29be a7f8 e73d 6b8a 94bd 20d2 1bbe
000000d0: 8b9f f23d 8b92 24be 3ebb 8a3d 60e5 c33d
000000e0: 8ed1 febc c9a6 c13d c4c0 bd3c 33ac 07be
000000f0: fa90 7f3c e35d fbbc 325c 143e f6fb 4abe
00000100: a633 bcbd 50f7 5dbd 9a2a a93d ad0c 563d
00000110: c512 d0bc e463 013d 9d87 87bd fee1 7abd
00000120: 8675 a53c 3ebf d23c a32e 08bd b2e6 303e
00000130: 6d81 173d 1bb3 cfbb f401 e9bd adef 16be
00000140: ee6e 3f3d 0f61 afbd 934f 8dbc 02c9 00be
00000150: 1738 0d3e bf2f 14be e91f 64be b902 2ebe
00000160: 92fb e33d 6e63 b73d 442b d83b 6fef d23d
00000170: 0d27 bf3d c1dd cb3d e845 eabc 9242 dbbc
00000180: fc94 743d dee1 cebc 6f45 c9bd a8a1 c5bd
00000190: 4aeb b8bd 2bcf 573d e21a 90ba 8918 8bbd
000001a0: bdf7 99bd 5ffb e0bd 372b 2d3c eb33 073e
000001b0: ff0e 12be 5d9e a4bd adba 493d c3b6 5cbd
000001c0: 7984 91bd a11a cdbd 1314 e03d 44a2 05bd
000001d0: fbd9 a6bd 0ec5 0bbd 9a34 bebd f96e 653d
000001e0: 09d5 b1bd 932e 433e 295d 75bb e73e 963d
000001f0: 6046 f2bd 963a c73d 83a5 38bc 989c 413d
00000200: f1ee a33d fa85 f73d f8a6 f4bd 6562 e33d
00000210: f731 c0bd 29aa 283e 9a33 b3bd 8100 043e
00000220: a113 8e3d 47dc db3d 278e 8fbd 3363 143e
00000230: 7809 23be b9b6 afbd cc27 263d 1426 dc3d
00000240: 6f61 c23c 7d46 d53c c0f4 25be f98a 07bd
00000250: e874 e9b7 70f1 bbbc e2d9 b63d 0f8a f3bd
00000260: d5d4 04bd fafb 7cbd 17b9 ab3c a0bb a4bd
00000270: d6b1 0b3e f15a c4bd 5c91 f0bd 424f 003e
00000280: c1cf 95bd 41eb c53d f350 6f3d 0a73 11be
00000290: 374a 37bd 1932 5f3c 26a7 e2bd d58e 1a3e
000002a0: 8a43 033e 9295 b23d 9fea bd3d ce8a c23c
000002b0: 6a40 15be 2e9f a33d 1376 8a3d 26cc 7d3c
000002c0: d11b d53d 26ce 13be d2f6 c6bc e156 f0bd
000002d0: 98c4 363d 9e10 1abe 1e36 ea3c d3ae 3e3d
000002e0: 9eb4 f8bc e4ac da3d 6b6b f83c ccf0 823d
000002f0: 638a 9e3b 6e80 573d 3272 da3d 4d33 31be
00000300: 55ac 0ebd 74c0 c1bd 6e0b d4bd 8400 3fbe
00000310: 7c6f a7bc a4d2 b83c 22cc f5bc 2ac4 f1bc
00000320: bbe1 1bbe 0668 9dbd 8a76 f5bd 8ade 813c
00000330: 3272 1abe 7bab 5ebd 6cf6 2abe bfc8 6bbd
00000340: 2710 c63d a5af f9bd 257f 1abe 0d3e b0bd
00000350: 893e 74bd b924 1e3c 7376 3cbd ef72 e1bd
00000360: e095 3cbe 3649 c6ba 18e5 97bc 49f7 1b3e
00000370: 8614 c73d c131 e7bc 7705 c6bc 12f7 d7bd
00000380: bf99 aa3d ebba 04bc e7ca 54be 1b4b 4bbd
00000390: 3ee1 43bd 0347 35be 3eae 38be 2486 673c
000003a0: e376 bfbd 7033 2e3e 97f5 f43d 7526 dabd
000003b0: 6f73 9bbd a473 1a3e e884 96bd bf6e 72bd
000003c0: bf85 5cbc 24c9 c43d ba56 24be bac5 b9bc
000003d0: bb2f 7a3d 2554 823c dcd8 27bd 70b6 64bb
000003e0: a7f1 edbd 478b 10be b2db 07be a67d 4dba
000003f0: 74a1 d2bd 2977 eebd 2e0d 103e eb40 c7bc
0.09670129 -0.011821152 0.019073019 -0.07395323 0.098032445 0.060928196 -0.036980852 -0.18296538
0.057853274 0.03292284 -0.09198505 0.09191223 -0.119654715 -0.14745478 0.009256634 0.031270612
0.06662529 0.06529074 0.035436198 -0.013398065 0.0915579 -0.11948676 0.08338795 -0.071218655
0.006803935 0.01828379 -0.1331014 -0.063518114 -0.091566354 0.04921202 0.03001507 -0.17101258
0.058140773 -0.13097392 0.06991172 -0.110570766 -0.07666374 0.07627447 -0.03765907 -0.09006242
-0.04221066 -0.07410799 -0.113766655 -0.10699312 -0.13388391 0.024528746 0.009863734 -0.08008067
-0.16515455 0.113267235 -0.07252964 -0.15216875 0.11846837 -0.16071527 0.06773995 0.09565234
-0.031105783 0.0945564 0.023163207 -0.13249283 0.01559853 -0.030684417 0.14488295 -0.19822678
-0.09189539 -0.054190934 0.08260079 0.052258182 -0.025399575 0.031589404 -0.06617663 -0.06125068
0.020197641 0.025725957 -0.0332476 0.17275503 0.036988664 -0.0063384897 -0.11377326 -0.14739867
0.04673665 -0.08563434 -0.017249858 -0.12576678 0.13790928 -0.14471339 -0.22277798 -0.16993226
0.111319676 0.089545116 0.0065969545 0.102995746 0.0933362 0.099544056 -0.028597787 -0.026765142
0.059712395 -0.025254186 -0.098276965 -0.09649974 -0.09029253 0.052687805 -0.001099434 -0.06791789
-0.075179555 -0.10985445 0.010569385 0.13203399 -0.14263533 -0.08038018 0.049250294 -0.053885233
-0.07105345 -0.10014845 0.10941329 -0.03262545 -0.08147045 -0.034123473 -0.09287377 0.056014035
-0.08683211 0.19060735 -0.003743956 0.073362164 -0.11829829 0.09727971 -0.01126993 0.04726848
0.08004559 0.12086101 -0.11945909 0.11102752 -0.0938453 0.16471161 -0.087500766 0.12890817
0.06937338 0.10735374 -0.07009535 0.14490966 -0.15921581 -0.085797735 0.040565297 0.1074945
0.0237281 0.026034588 -0.16206646 -0.03309152 -2.7830203e-05 -0.022942275 0.089282766 -0.11891567
-0.032429535 -0.06176374 0.020962281 -0.08043599 0.13642058 -0.09587658 -0.11746475 0.12530234
-0.073150165 0.09664012 0.05842681 -0.1420404 -0.04474851 0.013622784 -0.11067037 0.15093549
0.12818733 0.087199345 0.09273266 0.023747828 -0.14575353 0.079893455 0.06760802 0.015490567
0.10405696 -0.14434108 -0.024287615 -0.11735321 0.04462108 -0.15045401 0.028590258 0.046553444
-0.030359562 0.106775075 0.030324658 0.063935846 0.0048382743 0.052612714 0.10666312 -0.17304726
-0.034832317 -0.09460536 -0.103537425 -0.1865254 -0.020438902 0.022561379 -0.030004565 -0.029512484
-0.15222828 -0.076858565 -0.119855 0.015853185 -0.15082625 -0.054362755 -0.16695565 -0.057564493
0.096710496 -0.12191705 -0.15087564 -0.08605585 -0.05962995 0.00965231 -0.0460114 -0.1100825
-0.18416548 -0.001512802 -0.018541858 0.1523105 0.097207114 -0.028221967 -0.024172528 -0.10545172
0.08330106 -0.008101205 -0.20780526 -0.049632173 -0.04782223 -0.1770287 -0.18035218 0.014131103
-0.09348848 0.1701181 0.11960905 -0.10651866 -0.075903766 0.15083176 -0.073495686 -0.059187647
-0.013459622 0.09608677 -0.16048709 -0.022677291 0.061080676 0.015909264 -0.040978298 -0.003489878
-0.11618357 -0.1411563 -0.13267401 -0.00078388525 -0.10284701 -0.11643822 0.14067528 -0.024322947

netLayers.2.bias f4 [10]
00000000: 7c5a a73d 3749 163b a2b0 463c aae5 88bd
00000010: b64a 96bc 8b7f c33c 9d74 24bc 7358 8e3d
00000020: 5964 683d 54f9 92bc
0.081715554 0.0022931823 0.0121270735 -0.0668443 -0.018346172 0.023864528 -0.010037568 0.06950464
0.056736324 -0.017941155
