Intelligence/PrintIntelligence.pth (torch, 637599 bytes, 4 tensors)

netLayers.0.weight f4 [200, 784]
000000 43 47 24 bd b7 fe 30 3c 6f 74 20 bc 67 ff 88 bb
       -0.040107023 0.010802916 -0.009793385 -0.004180837
000010 26 bd 09 bc 42 8d 1d bd 2b d1 17 bd 56 91 aa 3c
       -0.008406913 -0.038464792 -0.037064712 0.020821255
000020 f9 8c ad bc 23 bb d5 3c 0a 57 42 3d 77 eb be 3c
       -0.021185385 0.02609021 0.04744629 0.023305638
000030 86 3a 22 bc e6 39 b9 bb dc 38 35 3d 09 cd 2e 3d
       -0.009901648 -0.005652654 0.04424368 0.042676006
000040 53 82 fb 3c 88 52 ba 3b 94 57 4f 3d be 74 3a 3c
       0.030701792 0.005686108 0.05062063 0.011380373
000050 da b8 a5 bc 01 e7 a4 bc 4a 14 91 3c 76 b4 0e 3c
       -0.020229746 -0.020129682 0.01770987 0.008710017
000060 08 cd 50 3d 17 bf bf bc 50 cb df 3c 19 74 bd 3c
       0.050976783 -0.023406548 0.027318627 0.023126649
000070 7d e0 32 bd 35 33 ee 3b af c0 ca bc 75 56 ab bc
       -0.04367112 0.007269288 -0.024750082 -0.02091525
000080 2e f4 2f bb 52 e0 59 bd d7 45 bf bc bd c8 00 bd
       -0.0026848423 -0.053192444 -0.023348732 -0.03144144
000090 aa d1 04 3c a3 21 27 3d b9 4b 6c 3c 37 3b 98 3c
       0.008106628 0.040803563 0.014422351 0.018582923
0000a0 f8 e3 9a 3c 17 96 1c bc 02 6c 67 bb b7 09 a4 bc
       0.018907532 -0.009557269 -0.003531218 -0.020024164
0000b0 21 08 0a 3c 37 82 34 bc 62 cc 3a 3c 44 cc 67 bc
       0.00842479 -0.011017374 0.011401268 -0.014147822
0000c0 89 0e fb 3a fb a6 30 3d 3b 00 32 3d a3 ee d0 3c
       0.0019154112 0.043127995 0.04345725 0.025504416
0000d0 6b 89 39 bc c1 4c 12 3d 47 6d e7 bc b0 b0 3e bc
       -0.011324267 0.03571773 -0.02825035 -0.011638805
0000e0 c1 15 83 bc 77 68 98 bc ca 3d 17 bc f3 db 99 3c
       -0.016001584 -0.0186045 -0.00923104 0.018781638
0000f0 d6 8e 3e bd 02 09 53 ba 86 20 36 bd 12 c5 c4 39
       -0.046522938 -0.00080503535 -0.04446461 0.00037530862
000100 b7 03 0a bd 9e b0 14 bc 00 3f 4c bd d3 48 3e bd
       -0.03369495 -0.009075312 -0.04986477 -0.04645617
000110 b4 25 19 3d c7 88 60 3c 49 4c 2d 3d 1d ab f1 3c
       0.037389472 0.013704485 0.04230908 0.029500538
000120 a0 e0 20 bd 93 fa 88 bd 4c ef 59 bd 9c dc b1 bb
       -0.03927672 -0.06688418 -0.053206727 -0.00542791
000130 99 6c c1 bc 46 e4 33 3c 43 dc 63 bd 9b 50 de bc
       -0.023611354 0.010979718 -0.05562998 -0.027138045
000140 be c4 5d bc 50 ed 04 3b 2c 35 c2 bc c9 54 fe 3c
       -0.0135356765 0.002028305 -0.023706995 0.031046288
000150 3c 22 44 3c cf 21 ab bc a7 2d 21 3d f2 23 35 bd
       0.011971053 -0.020890145 0.039350178 -0.044223733
000160 6c f8 95 3c cf b7 3e bd cb 9a 1b ba 21 8a a3 bc
       0.018306933 -0.046562012 -0.0005935847 -0.019963326
000170 56 4e 3e 3b 9f fb 6b bd 3a 10 40 bc 51 b6 0d 3d
       0.002903839 -0.05761301 -0.011722619 0.0345977
000180 ba d0 4e bc 1f c8 93 3a 25 cf 3c 3c 32 ca 74 bb
       -0.0126230065 0.0011274851 0.0115239965 -0.0037351963
000190 88 f2 b8 3c de 6f 20 bc 51 b8 a7 3b 86 b2 4b bd
       0.022576585 -0.009792296 0.005118408 -0.0497308
0001a0 0a ec fd bb 25 fa a5 bc da 15 e7 bb 99 f1 ff bc
       -0.0077490853 -0.02026088 -0.0070521655 -0.031243132
0001b0 85 4c 98 bb 0a 00 b5 3c a2 56 00 3d 3a 91 67 bc
       -0.0046477937 0.022094745 0.03133262 -0.014133746
0001c0 2a 8d af 3b 3f 57 ac 3c dd 4e e7 3b fa 92 91 bc
       0.0053574042 0.021037696 0.007058962 -0.01777028
0001d0 c7 0d 2b bd 1a cd 12 bc 6e dc c4 bc af c8 70 bc
       -0.041761186 -0.008960033 -0.02403089 -0.014696284
0001e0 3d a0 75 bd 50 aa f7 3b d4 b6 09 3d 7b 39 a8 3c
       -0.05996727 0.0075581446 0.033621624 0.020535221
0001f0 de 7a aa 3c 01 fc 3c bd 9f 1a 3f bd a5 3b 01 bd
       0.02081054 -0.046138767 -0.046656247 -0.031551022
000200 12 bc aa 3c fa 9e fc 3c 73 3d 70 3c 85 b2 44 3b
       0.020841632 0.030837525 0.014663088 0.0030013632
000210 b9 3e 41 bd c1 fa 80 bd b3 a1 a9 bc 9e 48 5a ba
       -0.047178958 -0.062978275 -0.020706987 -0.0008326861
000220 ff ec 88 bc c3 c9 4e 3c 95 2c 60 3c 72 84 1b bc
       -0.016714571 0.012621346 0.013682504 -0.009492027
000230 8f 9f 29 bc 65 0a 36 bb 77 c0 d4 bc 53 6b ae 3b
       -0.010352983 -0.0027777192 -0.02597068 0.0053228526
000240 88 5d 29 bb 14 db f7 bc 6a c0 55 bd 12 8d 86 bc
       -0.0025843102 -0.030255832 -0.052185453 -0.01642469
000250 da 2b 60 bc 29 24 7f 3c fb 37 10 bd bd 28 0f bd
       -0.01368233 0.015572586 -0.035209637 -0.03495096
000260 3d 55 95 bc ce 0c 70 bc 36 9c e4 bc 72 d8 49 3c
       -0.018229121 -0.01465149 -0.027906518 0.012319671
000270 72 1c 92 bc c9 6a 00 3d 86 0c 8f 3c b3 be 7a 3a
       -0.01783583 0.03135184 0.017462026 0.00095651596
000280 69 3b 82 3c 22 77 08 3c dc 36 9d ba 11 7d 58 bc
       0.01589747 0.008329185 -0.0011994499 -0.013213412
000290 1f dc 35 3a 0d c5 4b 3a 2d dd b7 bc 76 ba 1b 3c
       0.00069374026 0.00077731983 -0.022444332 0.009504905
0002a0 5a 0c ca ba 23 44 a9 bb ad 17 71 bd 8e 4e 5b 3c
       -0.0015415058 -0.0051655932 -0.05886047 0.013385428
0002b0 f5 6c 8c bc 4b 09 5b bd 18 06 8d bc 13 a8 09 bd
       -0.017141799 -0.05347566 -0.01721482 -0.033607554
0002c0 bf b7 f6 bc cd 8d 01 bd 9f c0 be 3c d7 ec fd bb
       -0.030116914 -0.031629372 0.023285208 -0.007749181
0002d0 16 4d 05 bd 36 67 88 bc 1c ea 53 ba ac f8 0f 3c
       -0.032544218 -0.016650777 -0.0008083896 0.008787315
0002e0 c8 bf e0 bc bd 3c 2c bb e9 a7 4e 3d 0e 38 24 3d
       -0.027435198 -0.002628132 0.0504531 0.04009252
0002f0 ad 24 10 3d 63 2e 8d 3c 5e ba 8f bc 5a 95 b5 bc
       0.035191227 0.017234033 -0.017544921 -0.022165943
000300 4e a3 f0 bc 57 d6 18 3d d7 2d 58 3c be 81 79 3b
       -0.029374745 0.037313785 0.013194523 0.0038071717
000310 6a e8 b9 3c 0b 16 a3 bc 9e 82 a2 bb 25 9a 97 3c
       0.022693831 -0.019907972 -0.0049594184 0.018506119
000320 96 4a ba bc c4 38 b8 bc 16 bc 9a 3b 78 6c 71 bc
       -0.022740643 -0.022488005 0.0047221286 -0.014735334
000330 f9 ff ff 3c ab 9d 91 bc 67 39 a7 bc 64 04 19 bd
       0.031249987 -0.017775377 -0.020413114 -0.037357703
000340 51 be 17 bb cc 08 20 bd 10 f3 fc 3c c1 fe 0c 3d
       -0.002315421 -0.03907089 0.03087762 0.03442264
000350 27 9a 38 3d 2d 46 15 3c 2a 03 6e 3d a0 3c 7d 3d
       0.045068886 0.0091109695 0.058108486 0.061825395
000360 55 c1 ea 3c 70 5d 4f 3c 02 55 7e 3b b8 5f 38 3d
       0.028656641 0.012656555 0.0038807993 0.04501316
000370 92 3d 11 3c 05 1e 5b 3d 2a d3 b8 bc a2 e1 be 3c
       0.008864777 0.053495426 -0.022561628 0.02330095
000380 cc 21 f9 3a 94 2f af ba 95 54 da 3c 84 f1 ea bc
       0.0019007265 -0.001336562 0.02665166 -0.028679617
000390 5f 39 0d bd 09 b9 b5 3c ce 94 84 3c bc a9 fb 3c
       -0.03447854 0.022182958 0.016184237 0.030720584
0003a0 ac 16 21 3c 81 fd e3 3b 95 fb 72 bc 73 8c fa 3c
       0.009832066 0.0069577103 -0.01483049 0.03058455
0003b0 82 4b b2 3c 99 50 40 3d 93 45 b9 3c 0d 66 02 3d
       0.02176452 0.046951864 0.022616183 0.031835604
0003c0 ee 83 47 bc 17 44 06 3d 45 63 bd 3b fa cf 09 3d
       -0.012177451 0.03277978 0.005779656 0.033645608
0003d0 36 ab e8 3c 86 50 1f 3c 80 5d 94 3c c0 ff 5a 3c
       0.028401952 0.009723788 0.01811099 0.01336664
0003e0 24 ea 01 3d d9 c3 60 3c 73 e7 60 bc a9 85 c1 3c
       0.031717435 0.013718569 -0.013727057 0.023623304
0003f0 de d9 aa bb 4d a6 e4 3c ea ad b5 bb 16 09 9e 3c
       -0.00521396 0.02791133 -0.005544414 0.019291442

netLayers.0.bias f4 [200]
000000 80 6c 2f 3c a6 a0 35 3d a4 11 01 bd 44 28 26 3d
       0.010707021 0.04434266 -0.031510964 0.040565744
000010 60 92 14 3d 19 06 15 3d 08 3a ef 3c 54 c6 0c 3c
       0.036272407 0.03638277 0.029202476 0.008592207
000020 02 64 8b 3d f4 1b 7b bc f5 cb 27 3d 83 7c ac 3c
       0.06806184 -0.015326489 0.040965993 0.021055466
000030 8a a4 3c 3d 16 65 21 3b 2d be 51 3d b3 36 56 bc
       0.046055354 0.0024626902 0.051206756 -0.013074565
000040 96 5a 59 3d 25 81 19 3b 5f a1 c9 3c e9 7d 47 bb
       0.053064905 0.0023422923 0.02461308 -0.0030440039
000050 6f e7 5e 3c 2b 9c 8b 3c 3e 30 cc bb 3e 33 fa 3b
       0.013604983 0.01704224 -0.006231337 0.007635503
000060 f5 bf 85 bb bc 69 1b bb a5 86 03 bb b0 b5 b2 bc
       -0.004081721 -0.0023714146 -0.0020069268 -0.021815151
000070 27 ee cd b9 d4 f1 a2 bc cb f9 57 3c 8d 72 4a 3b
       -0.00039278084 -0.019890703 0.013182114 0.0030891031
000080 2a a4 db 3c b6 32 df 3c 2b f0 08 3d 40 49 18 bb
       0.026811678 0.02724586 0.033432167 -0.002323702
000090 cc eb fa bc 7d 45 25 3a 88 e2 13 3c d8 f3 21 3d
       -0.030630015 0.0006304605 0.009026177 0.03953919
0000a0 64 81 df 3c ee 17 84 bb 6c ec 35 3d e5 05 02 39
       0.027283378 -0.004031173 0.044414923 0.00012399962
0000b0 34 4d 87 bc 7f 9c 4b 3d 48 77 ec 3c f3 83 6d 3c
       -0.016516306 0.049709793 0.028865471 0.014496791
0000c0 6c e4 95 ba f2 69 a7 3b d3 06 19 3d b0 e7 40 bc
       -0.0011435873 0.005109065 0.037360024 -0.011773989
0000d0 0c a5 e0 3c 7b f2 67 3d af 7b 5f 3d 6d 6f d2 3b
       0.02742245 0.05662773 0.054561313 0.0064219744
0000e0 4c ea 01 bb 5e e5 d4 3c 67 67 36 3d 06 68 21 3c
       -0.001982349 0.025988277 0.044532206 0.009851461
0000f0 81 4c 41 3d d1 1d e7 3b 51 0c 8e 3c 6e d2 13 3d
       0.0471921 0.007053115 0.017339857 0.036089353
000100 cf 65 98 bc 0a 3c 13 3d 1e 99 83 3c 99 98 ae 3c
       -0.018603234 0.03594593 0.016064223 0.021312999
000110 51 66 85 3c 6c 5a e3 3c 17 ef 3b 3c 14 3d 4d 3c
       0.01628414 0.027753077 0.011470578 0.012526769
000120 11 a1 37 3c bc bb af 3c 27 79 bd 3c a6 71 aa 3c
       0.011207835 0.021451823 0.023129059 0.020806145
000130 df cf 2a bd 6a 29 60 3d 9a 6c 14 3d a8 d3 69 bc
       -0.041702148 0.054726996 0.036236383 -0.014271654
000140 e5 8d a8 3c 64 3d 01 bd 05 fe be 3c 2d 15 8d 3c
       0.020575473 -0.031552687 0.023314485 0.017222011
000150 70 c3 72 bc a5 3b a6 bc 23 cc 09 3d ae 24 02 3d
       -0.014817104 -0.020292113 0.033641946 0.03177326
000160 5d 99 2d 3d f9 4f 20 bc 87 46 68 bb 50 76 17 3c
       0.042382587 -0.009784692 -0.0035442428 0.0092445165
000170 d8 a1 06 bd a6 16 2b 3d 5d 25 1f 3d c7 4b 62 bc
       -0.03286919 0.041769646 0.03885399 -0.013812012
000180 46 f6 0c 3c c9 53 2d bc ab 82 a5 3c a8 21 07 bd
       0.008603638 -0.010579058 0.020203909 -0.03299108
000190 55 84 b5 bc 87 ec 31 3d 01 37 11 3d ac b8 16 bb
       -0.022157827 0.04343846 0.035452846 -0.0022998257
0001a0 30 a0 a7 39 fc 75 b5 ba 2c 59 c7 bc 04 55 98 3c
       0.0003197207 -0.0013844366 -0.024334513 0.018595226
0001b0 09 39 b6 bc cb de 0c 3b 25 d1 f1 3a 17 65 28 3c
       -0.022243993 0.00214951 0.0018449171 0.010278008
0001c0 9f 3b 07 3d 48 27 b7 3c 2e b5 9f bc ee 77 b7 b8
       0.033015843 0.022357598 -0.019495573 -8.748459e-05
0001d0 e9 aa 2b 3d 01 38 3a 3b 9f ff 32 3c d6 22 37 bc
       0.04191104 0.0028414729 0.010925203 -0.011177739
0001e0 33 e8 8c 3c 82 bb cf 3b ea 8a 46 3d 00 2a 72 3d
       0.017200565 0.0063394913 0.048472323 0.059122086
0001f0 c0 b9 bf 3c 52 88 ba 3c d7 a2 23 3d a4 a8 e4 3c
       0.023404002 0.02277008 0.039950218 0.027912445
000200 a0 c7 94 3c 9a 55 55 bc 06 66 34 3d 37 e1 fc bb
       0.018161595 -0.013020897 0.04404261 -0.0077172774
000210 a5 9d 20 3b 36 ce 43 3a c8 67 aa 3c 22 19 9f 3c
       0.0024508026 0.00074693875 0.02080144 0.019421164
000220 75 71 62 bc 06 29 8a bc f2 e4 8b 3b 9a 6c 1a 3b
       -0.013820996 -0.016865265 0.004269236 0.0023563267
000230 fb a0 2a 3b a5 fa f0 ba f7 66 96 ba e7 b2 d9 bc
       0.0026035893 -0.0018385245 -0.0011474778 -0.026574565
000240 0f 1f b5 bb 00 f2 89 bb 2f c2 91 3c c4 2b 10 3c
       -0.005527384 -0.004209757 0.01779279 0.008799497
000250 76 1d 10 3d 6a 5b 8c ba 4e 5d 3c bc 3b 64 97 ba
       0.035184346 -0.0010708396 -0.011496855 -0.0011550257
000260 c9 00 38 3d bc 21 df 3c 90 f5 18 bc e5 f1 0d 3d
       0.044922624 0.027237765 -0.00933589 0.034654517
000270 13 b3 36 bb 15 53 b0 bc 9e a7 2f 3d b9 dc 2d 3c
       -0.0027877733 -0.021523992 0.04288446 0.010611706
000280 c4 e9 7d 3c d0 50 2c 3c 1f 2a 2b 3c 88 95 4b 39
       0.015497629 0.010517314 0.010447054 0.00019415293
000290 c0 53 6a 3c 7b 5c 1e 3d c9 9c 88 3b f9 d4 3f bb
       0.014302194 0.038662415 0.004169081 -0.0029271229
0002a0 fb 13 7a bc d7 a6 2f 3d 7b 36 8a bc 5f e2 c3 bc
       -0.015263553 0.04288372 -0.016871681 -0.023911653
0002b0 da 12 2c 3d 6b 6d 8b 3c c7 ad 8a 3c 9d 9b 29 3d
       0.042010166 0.017019948 0.016928567 0.04140817
0002c0 90 a9 c7 3b 4c 68 66 3d 8a 60 eb 3b 85 be 6f bc
       0.0060932115 0.05625181 0.007183139 -0.014632826
0002d0 e8 c3 aa 3c 8a c8 2e 3d 17 78 bc bc 88 54 5b 3c
       0.020845369 0.042671718 -0.023006482 0.013386853
0002e0 70 e0 11 3d 64 8e cb bc 2a fb dc 3c c5 58 94 3b
       0.03561443 -0.02484817 0.026975233 0.0045271837
0002f0 53 85 a2 bb a3 db 0d 3d b0 05 b5 3c b4 9a e6 bc
       -0.004959741 0.03463329 0.022097439 -0.02814994
000300 c2 9f f4 3c 76 30 25 3d b2 89 9d 3c 19 5d 24 3d
       0.029861335 0.04032942 0.019230697 0.040127847
000310 1d 93 7d 3c d1 16 21 3d 26 9d 3c bc cd e2 d1 bc
       0.015476969 0.0393284 -0.0115120765 -0.025620842

netLayers.2.weight f4 [10, 200]
000000 a4 a2 bf 3d 47 1b d4 3c 9c a0 9c bb 02 ea bf bd
       0.09357193 0.025891913 -0.0047798883 -0.09370805
000010 3d 75 96 bd 79 15 d3 bd bd 07 2b bd 48 54 5e 3d
       -0.0734658 -0.1030683 -0.041755427 0.054279596
000020 6e ea b1 bd 3c c3 82 bd be 66 bf bd 41 16 9c 3d
       -0.08687292 -0.06384894 -0.093457684 0.07621432
000030 a5 de 80 3d 03 d1 c3 bc 27 71 6c 3d 5e 9d 3b bd
       0.06292466 -0.023903375 0.057725098 -0.045804374
000040 15 0e cf 3d 4b 37 8d 3d 27 a5 6d 3d ff 28 8a bd
       0.10110108 0.06895312 0.05801883 -0.06746101
000050 47 3d 83 3c 63 f5 99 bd e5 27 e9 3d 02 08 63 3d
       0.01602043 -0.07517507 0.113845624 0.05542756
000060 4c 28 90 bd 98 d3 ca 3d 45 5c a2 bd 47 70 00 3c
       -0.07038936 0.099036396 -0.07927755 0.007839269
000070 3a 56 3c bd fa ce b8 bd 68 74 7c 3d 7a 02 9c bd
       -0.04598067 -0.09023853 0.06163445 -0.0761766
000080 fc 4c e0 3a a0 90 e0 3c fb 7b c0 bd 92 47 38 bd
       0.0017112787 0.027412713 -0.093986474 -0.04499013
000090 01 82 a2 bd 6c ba c0 bd 69 b6 d9 bb 2e 63 d5 3c
       -0.079349525 -0.09410557 -0.0066440594 0.02604827
0000a0 b3 6e 41 3d 53 22 d7 bd fa 72 81 3d 3e 9d 0c bd
       0.04722471 -0.10504594 0.06320758 -0.034329645
0000b0 b8 7b a7 bc c4 6d 88 bd c2 30 0b bc 69 ad 22 bd
       -0.020444736 -0.06661561 -0.0084955115 -0.039716158
0000c0 a3 fc 85 bd a6 fe cb 3b d9 d8 e2 bd 36 b1 88 bd
       -0.06542327 0.006225425 -0.11076517 -0.06674425
0000d0 f2 be 9e 3d 8d fd 6b 3d f9 e5 b5 bd 6b c4 b9 bd
       0.07751264 0.05761485 -0.088817544 -0.09070667
0000e0 88 ba aa bb e7 2a 0a 3d 17 b9 4a bd 50 81 7c 3d
       -0.0052102245 0.03373232 -0.04949292 0.06164676
0000f0 91 2c 4d 3d dd b1 79 bd e1 b5 c2 3c a3 d6 82 3d
       0.05009133 -0.06096064 0.023768367 0.06388595
000100 eb 91 56 3d 1c 34 55 3c 48 58 60 bd d6 74 84 3d
       0.052385252 0.013012912 -0.05477169 0.06467597
000110 0c 73 8c bd 5d f5 87 3d a6 a9 61 3d 96 7e 25 bd
       -0.06857881 0.06638596 0.05509343 -0.040403925
000120 4c 8a 85 bd 44 7a 16 bd 60 4b e2 3c 10 17 90 bd
       -0.06520519 -0.036737695 0.027623832 -0.07035649
000130 3c 44 92 bc c7 90 61 bd b5 c8 28 3c c3 20 8b 3d
       -0.017854802 -0.05506971 0.010301759 0.06793358
000140 31 29 da bd ff 17 c3 3c 0e 5c 4d bc 68 d3 12 bd
       -0.10652388 0.023815153 -0.012534155 -0.035846144
000150 58 7b 2e 3d 76 2c 63 bc fb 39 d6 bc c4 71 e7 3c
       0.0425981 -0.013865581 -0.026150694 0.02825249
000160 ad c3 30 3c 61 3a a8 bd 16 5c 24 bd 2d d1 1a 3d
       0.01078884 -0.0821426 -0.040126882 0.03779714
000170 32 6a c0 bd 50 5a 4c bd fc 71 3e bd 1e d5 50 3c
       -0.09395255 -0.049890816 -0.046495423 0.012746124
000180 50 e4 a3 3d cd 85 ae bd cc a3 07 3d d5 16 fe bc
       0.080025315 -0.08521614 0.033115193 -0.031016747
000190 d1 5f d0 bd 70 07 04 3d 8a 1a d9 bc 6e cf ec 3c
       -0.101745255 0.032233655 -0.026501913 0.028907504
0001a0 23 6f 4d bd fb 4e 72 bd d9 c4 72 bd c2 02 25 bd
       -0.050154816 -0.059157353 -0.05926976 -0.040285833
0001b0 f1 44 3f 3d 0e 54 5a bd e2 2b 2d bd ad 04 e6 bd
       0.046696607 -0.053302817 -0.042278178 -0.112313606
0001c0 f5 f9 c2 3c 05 24 70 3d 79 fb 8d 3d b0 d9 91 bc
       0.02380083 0.0586281 0.0693273 -0.017803997
0001d0 88 67 6e bd c0 f8 b7 3d 53 d9 c6 bd 39 d7 b2 bc
       -0.058204204 0.08982992 -0.0970942 -0.021831142
0001e0 a7 99 ca bd 8a b3 2c 3c 26 8b b5 3d 0d 1b 1a bd
       -0.09892588 0.010540852 0.08864431 -0.037623454
0001f0 51 84 77 bd 7c e1 9e bd 97 4a 92 3d 6d d5 0c 3d
       -0.06042892 -0.077578515 0.07143133 0.034383226
000200 e6 d9 b9 bd 51 1a 25 bd f1 31 8a 3d b7 9a e2 3d
       -0.09074764 -0.0403083 0.06747807 0.11064666
000210 78 12 31 bd da 5f 2c 3d 16 4f 73 3d 7e 22 bf 3c
       -0.043230504 0.0420836 0.059401594 0.023331877
000220 ab 6e a2 3d f0 c7 00 3d 02 96 94 3d 66 dc 98 3d
       0.079312645 0.031440675 0.07255174 0.07463913
000230 a9 88 ae bd 09 96 51 bd 84 9d ed bd 60 5b d8 bd
       -0.085221596 -0.051168475 -0.11602309 -0.105643034
000240 b8 9d 9d bd 44 5d 3a 3b 42 54 b5 bd 90 7a 99 bc
       -0.07696098 0.0028436938 -0.088539615 -0.0187352
000250 c9 13 0d 3d f7 3b 85 bc a5 85 54 bd 93 40 58 bd
       0.034442697 -0.016263945 -0.051885266 -0.052795958
000260 c0 84 bd 3c 9b 55 7f bd 6a 61 a1 bd 25 a4 95 bd
       0.02313459 -0.0623375 -0.078799084 -0.07306699
000270 ad 2a cf bd bb ee 97 3d 5e 20 a5 bc 25 fa 93 3c
       -0.10115562 0.07418581 -0.020157035 0.018063614
000280 1d 8f 19 3c 81 93 a2 bd 1e e3 23 bd 32 a8 95 3b
       0.0093725 -0.079382904 -0.040011518 0.0045671696
000290 35 1a a9 3d 63 ff 1e 3d 59 d1 27 3d 44 82 c6 3c
       0.08256952 0.038817775 0.040971134 0.024232037
0002a0 21 10 d5 3d f0 df 40 3b e2 7e 5e 3d c0 a6 38 3c
       0.10403467 0.0029430352 0.054320224 0.011270225
0002b0 5f 07 2f 3d 97 0a 9f 3d c9 d4 47 bd 96 f2 fd 3c
       0.04273164 0.07765692 -0.048786912 0.030999463
0002c0 d6 a9 79 3d fb 93 c4 3c 73 1b 46 3d ad dd 6b bb
       0.060952984 0.023996344 0.04836602 -0.0035990283
0002d0 f3 7d f1 bc 75 dc 0d 3c 2d 8f 0f bd 66 92 b9 3c
       -0.029479003 0.008658518 -0.035048652 0.022652816
0002e0 12 49 7c 3d 60 f3 84 3d d8 e7 16 3d 95 09 ea bd
       0.061593123 0.064917326 0.036842197 -0.11427609
0002f0 f4 81 aa 3b dc a5 8b bd d3 f4 bb 3d 2e f9 72 bd
       0.00520348 -0.068187445 0.09177556 -0.059319668
000300 96 29 e1 3b 24 c0 82 bd f9 78 96 3d ed da e3 bd
       0.0068714125 -0.06384304 0.073472925 -0.11125741
000310 8e ee 57 bd 08 e9 a7 bd 44 f2 bc 3d cd 23 98 bc
       -0.052717738 -0.08198744 0.09225896 -0.018571759
000320 7a a4 d6 bd ef e2 56 bd ad ae c1 bc d7 27 d6 3d
       -0.1048059 -0.052462514 -0.023642862 0.104568176
000330 9d c7 0e bd 3c bf 28 3d d8 87 c3 bd a9 a9 82 bc
       -0.034858335 0.041198 -0.095473945 -0.01595004
000340 ac 57 85 3d 7f f8 85 bd 00 e0 cf 38 33 0b 79 3c
       0.06510863 -0.065415375 9.9122524e-05 0.015200424
000350 8e fe 6d bd ac 32 76 3d 31 4c cc bd d1 be d4 bd
       -0.05810409 0.06010692 -0.0997547 -0.10387958
000360 f3 96 53 3d b4 74 23 bc a8 26 cc bd 94 2c a0 bc
       0.05165763 -0.009976555 -0.099683106 -0.019552507
000370 c6 d4 13 3d 4b 17 d6 bc 36 87 56 bd 1f bb a4 bd
       0.03609159 -0.026134154 -0.05237504 -0.08043503
000380 af e6 78 3d 4b 85 2e bd 9b 00 e6 bc 2d a0 2f bd
       0.060766872 -0.042607587 -0.02807646 -0.042877365
000390 1d 2a e5 bd 14 2b e6 3c 89 aa 53 3d 60 bb 76 bd
       -0.11189673 0.028096713 0.051676307 -0.06023729
0003a0 b3 69 64 3d c3 b1 43 bd 11 e1 2c bc 4d 5b 29 3c
       0.055764865 -0.04777695 -0.010551707 0.010336709
0003b0 6e db 83 bd c8 b2 cb bd 81 8c d6 bd 0a 7d 9a 3d
       -0.06438337 -0.09946209 -0.10476018 0.075433806
0003c0 14 90 b3 3c 85 03 ce 3d ea 3e ef 3c 5a c0 83 3d
       0.021919288 0.10059265 0.029204804 0.064331725
0003d0 56 c7 1a bd c6 77 d3 3d 73 0c 76 3d a1 6f c7 3d
       -0.037787758 0.10325579 0.060070466 0.097380884
0003e0 49 ce 97 bc 9f 51 84 bd be d3 ea bc 0c e0 75 3d
       -0.018530982 -0.064608805 -0.02866542 0.06002812
0003f0 0d b8 d3 3d f3 34 e4 3a 65 1c 9d 3d 22 60 cd b9
       0.10337839 0.00174108 0.076714315 -0.00039172271

netLayers.2.bias f4 [10]
000000 01 98 32 3d 4c 3f 6a bc ea 9b 02 3d a5 e5 59 3d
       0.043601993 -0.014297318 0.031886972 0.05319752
000010 42 18 d7 bb 4a 28 95 bc 24 92 2a 3d 31 3b 9c bc
       -0.006564171 -0.018207688 0.041643277 -0.019071193
000020 ba 5a 97 bd 37 b9 8d 3d
       -0.073903516 0.069200926
